cartpole/eqs_of_motion/DQN/q-fxn.pth (torch, 1875 bytes, 4 tensors)

fc1.weight f4 [16, 4]
000000 fd d7 03 bf af 8a fe 3d 82 4f 88 bd 7c d9 61 3d
       -0.51501447 0.124287955 -0.0665579 0.05513905
000010 4c 8f 92 bf 32 4b b2 bf 6d 03 84 c0 c5 67 ca bf
       -1.1449981 -1.3929198 -4.125418 -1.5812918
000020 e9 72 89 be 29 a5 42 3c 75 d2 e0 bf 50 a0 bd bf
       -0.26845482 0.011880198 -1.7564226 -1.4814548
000030 f2 a3 1b 3f 88 85 69 3e d2 c9 a1 be 3c 72 0a be
       0.60797036 0.22804844 -0.3159929 -0.1352014
000040 94 11 ae 3e 40 26 e6 3d 66 5d fa be 08 64 bb 3d
       0.33997786 0.11237764 -0.48899382 0.09149939
000050 af bc fd 3f 86 00 c1 3f 24 20 8d 40 7c 91 cd 3f
       1.9823207 1.5078285 4.4101734 1.6060023
000060 2d e5 b7 3d 73 21 84 be ff 79 3e be 2c a8 8f be
       0.08979259 -0.2580677 -0.18601225 -0.28057992
000070 4b d6 ff 3f a4 f0 b6 3f 0c 65 94 40 37 7c ba 3f
       1.9987272 1.4292188 4.637335 1.4569157
000080 7b 08 d1 bf 95 2c 9e bf ef b6 79 c0 db 50 c6 bf
       -1.6330713 -1.2357355 -3.9017904 -1.5493425
000090 ca 22 a4 3f 01 ea 41 bf a5 ef 0f 40 de 2c a6 3f
       1.2823117 -0.75747687 2.2490017 1.2982442
0000a0 08 7e d5 3f a3 43 c4 3f 60 9e 8d 40 5f 3a cb 3f
       1.6679087 1.5333141 4.425583 1.5877188
0000b0 03 9d e5 bf 46 ed c9 bf d0 32 8f c0 30 6d e0 bf
       -1.7938541 -1.5775535 -4.4749527 -1.7533321
0000c0 ed b3 25 c0 d8 54 d7 bf 81 c5 88 c0 d0 d8 ef bf
       -2.5891068 -1.6822767 -4.2741094 -1.8738041
0000d0 4a 48 a2 3f 1e 4d 93 3f df 82 6d 40 48 66 0b 3f
       1.2678311 1.1507909 3.7111127 0.54452944
0000e0 fb c1 07 40 b0 6e e3 3f 50 ab 91 40 77 d2 ae 3f
       2.1212146 1.7768154 4.552162 1.3657979
0000f0 d4 dd 03 40 72 30 ba 3f ba 65 9e 40 2f a0 c2 3f
       2.0604143 1.4546034 4.949918 1.5205134

fc1.bias f4 [16]
000000 b6 60 21 be 61 96 d0 3e d4 b6 f1 be 80 48 8b bf
       -0.15759549 0.4073973 -0.472098 -1.08815
000010 fc 8b 53 be bc ba 8d 3b 7f b1 13 bf 74 da 1e 3c
       -0.20658869 0.004325239 -0.5769271 0.009695638
000020 e7 59 c7 3e c3 fa 3d 3e db 80 d8 bb 71 3b c7 3e
       0.38935778 0.18552689 -0.0066071576 0.38912538
000030 5d 87 f1 3e 26 37 47 3c 87 3f 68 bc 65 62 38 3d
       0.47173586 0.0121591445 -0.014175302 0.04501571

fc2.weight f4 [2, 16]
000000 ad 9f 8b 3b c2 8a bf 3f ee 82 8e 3e 57 d2 dd be
       0.004260978 1.496422 0.27834266 -0.4332454
000010 f0 0e ac 3c 26 bd cc bf c4 66 d8 bd 65 46 f8 bf
       0.021003217 -1.5995224 -0.10566476 -1.9396483
000020 3a 38 b8 3f 5e 28 25 bf 65 12 98 bf 55 f7 ac 3f
       1.4392159 -0.6451472 -1.1880614 1.351298
000030 57 fe e1 3f 9f a4 0c bf 8c 5c ec bf dd 1d d2 bf
       1.7655743 -0.5493869 -1.8465743 -1.6415364
000040 ca 46 ce 3d 28 67 a0 bf 7c a6 80 be 0d 32 df 3e
       0.10072096 -1.2531481 -0.25127017 0.43592873
000050 08 1d 55 bd bd 60 be 3f 66 3f 88 3c 8a 1d f1 3f
       -0.05202964 1.4873272 0.016631793 1.883714
000060 78 75 97 bf 76 30 46 3f 9c 3c a9 3f 1d fb d1 bf
       -1.1832724 0.77417696 1.3221622 -1.6404759
000070 f5 97 ef bf 1f 98 37 3f b0 03 c8 3f 14 37 df 3f
       -1.8718249 0.71716493 1.5626125 1.7438684

fc2.bias f4 [2]
000000 28 e5 59 3e a5 af a2 be
       0.21278822 -0.3177463
