cartpole_balance/eqs_of_motion/DQN/test.pth (torch, 1869 bytes, 4 tensors)

fc1.weight f4 [16, 4]
00000000: 8e1a f63e a222 61be c191 cbbe fa04 bd3e
00000010: a1d2 d63e 8919 1f3f b1a7 0240 20d9 7c3f
00000020: 0298 463b 6246 02bd 380b 59be 3ca1 c13e
00000030: 11ce dfbd 1cb1 b1be c29b 11c0 d90c 9cbf
00000040: 1d65 f03d f828 8e3d 66f8 d13f ed27 b03f
00000050: 96c1 b73e f28c 093f 9b5e 0040 86f7 563f
00000060: e923 9d3e 8949 f13e c8c7 1e40 039d 9d3f
00000070: 3516 b4be cc04 2bbf b9ef bebf 7f89 79bf
00000080: 267f cbbe 6f86 32bf 61ad 0fc0 666a 9bbf
00000090: e329 513e fa7d bcbe 056d 1ebf 3f37 01be
000000a0: 5b4f 4f3e 7813 c3be 79d8 9cbe 4ff7 89bd
000000b0: 9fed 933e 7873 bfbe ac4e fdbf b3d3 b6bf
000000c0: 19d4 64be 502a 113e 55f0 ca3f 0567 523f
000000d0: 25af 353e e715 82be 705e dcbe 7fba e73d
000000e0: 554b ff3e 5028 ef3e 7a58 d03f 8237 793f
000000f0: 58d2 df3c 2c76 abbe 2360 a8bf cbbf 85bf
0.48067135 -0.21985868 -0.3975964 0.3691786 0.41957572 0.6214834 2.041485 0.98768806
0.0030303006 -0.031805404 -0.21195686 0.37818325 -0.10927976 -0.34705436 -2.2751317 -1.2191421
0.11738036 0.06941408 1.640393 1.3762184 0.35889882 0.5373069 2.0057743 0.8397144
0.3069146 0.47126415 2.4809437 1.2313541 -0.35173193 -0.66804194 -1.4916908 -0.9747543
-0.39745444 -0.6973638 -2.2449572 -1.2141845 0.20426135 -0.36814862 -0.618851 -0.12618731
0.20245115 -0.3810079 -0.30633906 -0.067366235 0.28892228 -0.37392783 -1.9789634 -1.4283355
-0.22346534 0.14176297 1.5854594 0.82188445 0.17742594 -0.25407335 -0.430408 0.11314868
0.4986216 0.46710443 1.6277001 0.97350323 0.02732198 -0.33488595 -1.3154339 -1.0449156

fc1.bias f4 [16]
00000000: daf2 07bf 0cd0 193f 201c 02bf e82a 913e
00000010: 8be9 063f 8946 0b3f 3132 233f 5290 13bd
00000020: d209 6e3e e7fb bfbe 157e 27bf 377a 3a3e
00000030: 6233 7b3e b93a 3abf 92e3 ed3e c70f 64bc
-0.5310494 0.6008308 -0.50824165 0.28353047 0.5270011 0.54404503 0.6374846 -0.036026306
0.23245934 -0.37496874 -0.6542676 0.18210684 0.2453132 -0.72745854 0.46462685 -0.013919777

fc2.weight f4 [2, 16]
00000000: c3a9 f8bc 82fa 5ebf f84d 28be d4ab 0f3f
00000010: 70fb 47bf 3385 4fbf a58d 8fbf bbf5 573e
00000020: 8b0f 643f 3b9f 723e e90c 223d 8435 393f
00000030: 0bf6 fdbc a1c4 babd 10c2 b6be 360e b33c
00000040: 1e0c 883d 7bbf 1d3f c7a3 613d b7c1 fabe
00000050: 382d 353f 2fa0 173f bb1c 863f d914 c1be
00000060: 865e 85bf e14a 3ebe 0b70 c9bd 5872 2bbf
00000070: d976 b33e 5fe5 173c 7f04 263f 43d2 cbbe
-0.030354386 -0.87100995 -0.16435993 0.56121564 -0.7811804 -0.8106262 -1.1215101 0.21089832
0.89086217 0.23693554 0.039563093 0.72347283 -0.031001111 -0.09119535 -0.35694933 0.021857362
0.06642936 0.616203 0.05508783 -0.48975918 0.70772123 0.59228796 1.0477518 -0.37711218
-1.0419471 -0.18583252 -0.098358236 -0.6697135 0.3505161 0.009270995 0.6485061 -0.39808854

fc2.bias f4 [2]
00000000: e34e 36be 7b58 7b3e
-0.1780353 0.24545471
