cartpole_balance/eqs_of_motion/PPO_preTrained/CartPole-v1/PPO_CartPole-v1_0_0.pth (torch, 40745 bytes, 11 tensors)

actor.0.weight f4 [64, 4]
-0.20557417 -0.17289713 -0.30270526 0.3598724 -0.280863 -0.54293317 -0.14242989 -0.40915823
-0.13972136 0.13607566 -0.45426732 0.1406966 0.4677721 0.4806164 0.44119564 0.49365908
0.3053723 -0.19742574 0.35914224 0.46640015 -0.2249539 0.31221205 0.4130225 0.10205774
-0.12040594 -0.08004419 -0.21763799 0.43542242 -0.1134737 0.5242666 0.8131211 0.25018662
0.49420473 -0.52716297 -0.82489663 -0.42889354 0.0046347817 0.24239458 -0.12958345 -0.19939694
0.16378307 0.45879477 -0.15389325 0.13678202 0.49170548 0.12439497 0.13351117 0.34112093
0.31069693 0.29499665 0.042585157 -0.050446443 0.2943703 -0.32125053 0.4207746 0.16590507
0.2390807 -0.14827691 0.7451993 -0.06023415 0.5198803 -0.29736248 -0.29543224 -0.40255123
0.31131074 0.022785373 -0.30977827 -0.4405581 0.02728171 -0.19190954 -0.8295531 0.396556
-0.23044106 0.40907818 -0.6194385 -0.024702113 0.074589565 0.08447798 -0.40095347 -0.48135012
-0.13552673 -0.18496752 -0.2029882 -0.12069921 0.2897824 0.048004963 0.5236112 0.42962125
-0.25095138 0.42523876 -0.50574267 -0.12211665 -0.2867484 0.121026255 -0.5350304 -0.24409862
-0.35282236 0.32015005 -0.18629791 0.5340353 0.13143201 0.09775007 -0.37659532 -0.30633622
-0.37805516 0.3988644 0.3173524 -0.47744364 -0.15194286 0.43870607 0.46900174 0.26162866
-0.07757731 0.32498142 0.711797 0.26606682 0.11651585 0.010463511 -0.06766587 0.2655113
0.28706867 -0.410212 0.4995522 0.47890896 -0.08804408 0.16198747 -0.1580519 -0.2865742
-0.068008445 0.42650178 0.28221494 -0.09811918 -0.102405906 -0.17712323 -0.65590054 0.1633055
0.21566561 0.29419014 0.7366554 0.27182603 -0.24884129 -0.40977228 -0.18315265 0.51102114
0.20382063 -0.1535432 -0.3997339 -0.2519369 -0.28485158 -0.56814885 -0.7595872 -0.12692948
-0.033396985 -0.2985381 -0.11088718 -0.022456937 0.15061054 0.5627269 0.77827317 0.24862935
0.04912187 -0.09603368 0.20791508 -0.31130877 0.23583855 0.11243132 -0.31709313 -0.114113845
-0.0044904784 0.37614712 0.28115308 0.37469584 0.23615094 -0.33329368 0.84588087 -0.15136838
-0.15574731 0.15426551 0.5226658 0.25439075 -0.40158585 0.09939283 0.2517585 -0.17844848
-0.026529366 0.4591803 0.43246126 0.5443861 0.45243424 0.580248 -0.05884747 0.5258847
0.22865869 -0.13664551 0.7833777 -0.07669491 0.25871077 0.041354768 0.22825502 0.3237188
0.29475757 -0.3868932 0.67228055 0.30325225 -0.05177061 0.35304627 0.8960048 0.38319147
0.42701745 -0.19139712 -0.8140921 0.015170207 -0.19707204 0.48293135 0.28700778 0.2756518
0.3019684 -0.028832901 -0.39105132 -0.53924215 -0.3475471 0.19073114 0.71924466 0.45089576
0.23729008 -0.035966273 -0.015951052 -0.012066102 -0.3254414 0.36981595 -0.29485407 0.19612323
-0.2682089 0.44978118 -0.13117881 0.30819353 -0.17424507 0.5596903 0.3910804 0.4161019
-0.17587075 -0.27332857 -0.4496364 -0.4148857 -0.55857664 -0.33043122 0.70130926 0.42778704
0.013319579 0.38089827 0.5534586 -0.062766954 -0.007077871 -0.3222347 0.1149475 -0.4564173
00000000: 0982 52be f20b 31be 2ffc 9abe 3241 b83e
00000010: 46cd 8fbe abfd 0abf 24d9 11be 307d d1be
00000020: 1e13 0fbe 6b57 0b3e ba95 e8be c512 103e
00000030: d37f ef3e 5a13 f63e 65e4 e13e e2c0 fc3e
00000040: c259 9c3e f929 4abe 7ee1 b73e 00cc ee3e
00000050: 515a 66be 42da 9f3e af77 d33e a603 d13d
00000060: 6497 f6bd 35ee a3bd 7edc 5ebe b0ef de3e
00000070: e664 e8bd 5636 063f b428 503f 7618 803e
00000080: 6708 fd3e 27f4 06bf 6d2c 53bf ef97 dbbe
00000090: 5edf 973b 4936 783e 86b1 04be b62e 4cbe
000000a0: c0b6 273e 26e7 ea3e 3196 1dbe 9610 0c3e
000000b0: d2c0 fb3e cac2 fe3d 27b7 083e 67a7 ae3e
000000c0: ab13 9f3e cd09 973e c66d 2e3d eea0 4ebd
000000d0: b4b7 963e f37a a4be c56f d73e 05e3 293e
000000e0: 92d1 743e e7d5 17be 62c5 3e3f 16b8 76bd
000000f0: e016 053f e53f 98be e542 97be 321b cebe
00000100: 1f64 9f3e 64a8 ba3c 429b 9ebe d590 e1be
00000110: e57d df3c ef83 44be 985d 54bf 6309 cb3e
00000120: bef8 6bbe b272 d13e 8693 1ebf 165c cabc
00000130: 6ac2 983d cb02 ad3d c649 cdbe 8673 f6be
00000140: 85c7 0abe 2068 3dbe 24dc 4fbe 2631 f7bd
00000150: 5c5e 943e daa0 443d 620b 063f 51f7 db3e
00000160: b37c 80be e5b8 d93e 5a78 01bf 4b18 fabd
00000170: b0d0 92be 9ddc f73d c1f7 08bf fdf4 79be
00000180: 22a5 b4be b5ea a33e e1c4 3ebe 8ab6 083f
00000190: 1d96 063e 3031 c83d 1ad1 c0be 1ad8 9cbe
000001a0: 7290 c1be f437 cc3e 047c a23e 7e73 f4be
000001b0: e996 1bbe 159e e03e ff20 f03e 31f4 853e
000001c0: dae0 9ebd f763 a63e 5438 363f e939 883e
000001d0: dd9f ee3d 256f 2b3c 6794 8abd 19f1 873e
000001e0: aafa 923e 4f07 d2be 4ec5 ff3e 8e33 f53e
000001f0: 7450 b4bd 0be0 253e 5bd8 21be dbb9 92be
00000200: 0348 8bbd 715e da3e 7a7e 903e b5f2 c8bd
00000210: 30ba d1bd cb5f 35be 19e9 27bf 8f39 273e
00000220: 72d7 5c3e 17a0 963e 7395 3c3f c82c 8b3e
00000230: 40d0 7ebe accd d1be 5e8c 3bbe 48d2 023f
00000240: 5bb6 503e 6e3a 1dbe eca9 ccbe e0fd 80be
00000250: 11d8 91be 3472 11bf 4f74 42bf cdf9 01be
00000260: 47cb 08bd fcd9 98be d118 e3bd 9cf7 b7bc
00000270: a639 1a3e df0e 103f e93c 473f b198 7e3e
00000280: 0434 493d 4ead c4bd b1e7 543e dd63 9fbe
00000290: a97f 713e 6442 e63d 085a a2be 85b4 e9bd
000002a0: dd24 93bb 5b96 c03e 4cf3 8f3e 22d8 bf3e
000002b0: 8dd1 713e 78a5 aabe a68b 583f 5000 1bbe
000002c0: 397c 1fbe c7f7 1d3e 6dcd 053f 813f 823e
000002d0: a99c cdbe 788e cb3d 7de6 803e 33bb 36be
000002e0: 1d54 d9bc ae19 eb3e 906b dd3e e35c 0b3f
000002f0: 76a5 e73e 228b 143f 0b0a 71bd 61a0 063f
00000300: 8125 6a3e cdec 0bbe 718b 483f 3912 9dbd
00000310: bd75 843e 9e63 293d afbb 693e 78be a53e
00000320: 77ea 963e de16 c6be 941a 2c3f e143 9b3e
00000330: 6b0d 54bd 7bc2 b43e 9260 653f ac31 c43e
00000340: 08a2 da3e 9bfd 43be 5768 50bf 768c 783c
00000350: 41cd 49be c742 f73e aff2 923e 3c22 8d3e
00000360: 9a9b 9a3e fa32 ecbc e137 c8be c60b 0abf
00000370: b2f1 b1be 064f 433e 6b20 383f cfdb e63e
00000380: 2cfc 723e 5f51 13bd c8ab 82bc e6b0 45bc
00000390: 41a0 a6be 8458 bd3e 1df7 96be 87d4 483e
000003a0: ad52 89be b849 e63e bd53 06be 8bcb 9d3e
000003b0: 4d6d 32be dd47 0f3f b13b c83e 4f0b d53e
000003c0: 7617 34be b9f1 8bbe be36 e6be e66b d4be
000003d0: e1fe 0ebf 482e a9be 0189 333f e706 db3e
000003e0: 5d3a 5a3c 1905 c33e 76af 0d3f f68b 80bd
000003f0: 7ced e7bb f2fb a4be 9869 eb3d 87af e9be

actor.0.bias f4 [64]
0.27919573 0.4436961 0.40786177 0.37995607 -0.39295134 0.046476662 -0.1716091 -0.2977891
0.27199537 -0.0743154 -0.107575074 0.33863965 -0.29840472 -0.06745947 0.09155191 0.055526186
-0.38569263 -0.2145367 -0.30105364 -0.053168703 0.46904767 0.3381523 0.35255638 0.07716284
0.39115512 -0.06781427 0.44143656 0.29607424 0.29599154 0.102358036 0.339827 0.31740943
0.03674684 -0.269939 -0.11464542 -0.26148152 0.4007416 -0.0007519383 0.43292388 -0.33319962
0.01537165 0.29020047 0.040632796 0.09252425 0.40499377 0.27548212 -0.2867908 0.06625973
0.48543236 -0.07462064 -0.0982669 -0.035246715 -0.20158434 0.027093034 0.33737698 -0.28823513
-0.2778232 0.067163184 -0.31152466 -0.3585495 0.07780424 0.01971885 -0.44547656 0.43417406
00000000: bef2 8e3e 232c e33e 42d3 d03e 9a89 c23e
00000010: eb30 c9be 505e 3e3d 4cba 2fbe d077 98be
00000020: fa42 8b3e ac32 98bd 5250 dcbd 2d62 ad3e
00000030: 81c8 98be 3128 8abd 917f bb3d 6d6f 633d
00000040: 8179 c5be 82af 5bbe b423 9abe 6dc7 59bd
00000050: 0427 f03e 4c22 ad3e 4582 b43e 8d07 9e3d
00000060: 7c45 c83e 35e2 8abd f903 e23e 0b97 973e
00000070: 348c 973e 17a1 d13d cefd ad3e 7d83 a23e
00000080: db83 163d 7235 8abe 38cb eabd e8e0 85be
00000090: 012e cd3e ba1d 45ba 33a8 dd3e 2499 aabe
000000a0: 60d9 7b3c 2895 943e 936e 263d 5b7d bd3d
000000b0: 585b cf3e fe0b 8d3e 3ed6 92be 2eb3 873d
000000c0: 978a f83e b5d2 98bd 2840 c9bd dc5e 10bd
000000d0: 206c 4ebe 36f2 dd3c adbc ac3e 8e93 93be
000000e0: d83e 8ebe da8c 893d 2980 9fbe cd93 b7be
000000f0: d457 9f3d 6d89 a13c 8115 e4be 104c de3e

actor.2.weight f4 [64, 64]
0.009776149 0.02902685 -0.04676733 -0.17133045 0.058775175 0.015940715 0.04979213 -0.016592132
0.16965091 0.066991545 0.10944598 0.026260132 -0.03368641 0.05702312 -0.06295174 0.111748405
-0.08767408 0.028996568 0.06461159 -0.022960886 0.113025405 -0.028800491 -0.001955829 0.1732301
-0.13442184 0.06410437 -0.077138 -0.08230491 -0.11802021 0.01178408 -0.028709974 -0.06257416
-0.13645375 0.05638011 -0.022058716 0.018448243 0.026451934 0.18961307 0.08525112 -0.12304681
0.09776943 0.049480803 -0.19690815 -0.098409645 -0.0009841241 0.0050336528 -0.071292974 -0.09473578
0.06344991 -0.14370553 -0.120070964 -0.099616975 0.20692137 -0.046929393 0.12615463 -0.054780323
0.06456327 -0.026758073 -0.053749576 0.008140446 0.15638739 -0.12640719 -0.012140634 0.08563515
0.15103519 0.079238534 0.08004671 -0.022526763 -0.055816256 -0.17897503 -0.033958934 -0.13323629
0.13834645 -0.01153057 0.004512123 -0.10735366 -0.047970098 -0.0051203687 -0.042785548 0.06747108
0.0065292586 0.18246107 0.13433412 -0.02707159 0.08623241 -0.1094071 -0.12235392 0.14214607
-0.05838427 0.14472117 -0.1163467 -0.10121363 0.01610198 0.014071101 0.05796865 -0.09280747
-0.04123424 0.041344553 -0.29108092 -0.026421541 0.022524469 0.20820335 0.082439974 -0.0068941223
-0.07028554 0.0060963226 -0.25258783 -0.015735786 -0.09272416 0.032465886 0.057004485 0.0042329337
0.022084348 -0.14217176 -0.117226645 -0.25456727 0.15767291 -0.13801523 0.03717012 -0.099572085
-0.029658847 -0.006548905 -0.06714009 -0.102590494 0.14058973 -0.0685817 -0.1050034 -0.12304431
0.11549149 0.10024568 0.084609225 -0.026002152 -0.028552273 -0.15818672 0.054885093 0.0048864675
0.0684036 0.050440524 -0.072050355 -0.111318275 0.009363411 -0.13143115 -0.067831725 0.18057261
-0.07591732 0.101867646 -0.04312604 0.07771272 0.106402375 0.03797564 -0.06566474 0.17621239
0.065400206 7.260493e-05 -0.06959274 -0.1111407 -0.11186355 0.10150556 -0.08908511 0.034251623
-0.034331728 0.13874717 -0.13811526 -0.00035294946 0.06733 0.24880579 0.05742732 -0.1332064
-0.034197327 -0.02553143 -0.18642005 -0.13725635 -0.13914382 0.026203584 -0.1410595 -0.013038725
0.0005693079 0.077945456 -0.009575644 -0.24645774 -0.019708218 -0.20851217 -0.038805343 0.06205289
-0.018913426 -0.030989947 0.064480655 0.013747425 0.046937656 0.00049823266 0.00058682496 0.08130396
-0.06669347 -0.109432735 0.08128295 -0.1331026 -0.01685048 -0.14807917 0.049790945 -0.15931962
0.18206796 -0.10779108 -0.035049357 0.036925383 0.10814708 -0.07812487 -0.16314594 0.10143122
-0.024186675 0.16392462 0.004952422 -0.04887779 -0.08377164 -0.0116460975 0.09907691 0.07647751
-0.10703771 0.17343064 -0.083560266 -0.16259933 -0.11782457 0.045584835 0.010346962 0.07093125
0.08173871 -0.018717641 -0.039784025 0.009672571 0.12233732 0.27577332 -0.045094907 0.0041470514
-0.12733287 0.12234304 -0.19990693 -0.20619766 -0.09767402 0.074023016 -0.14037205 -0.1895609
0.062183365 -0.046273 -0.09638834 -0.26718938 0.1534281 -0.19126943 -0.08759838 -0.031033827
0.011313168 0.10817822 -0.09129171 0.06890678 0.119825475 -0.08696533 -0.11355711 0.08045429
00000000: 242c 203c b7c9 ed3c 1a8f 3fbd 4071 2fbe
00000010: 3dbe 703d 1a96 823c d5f2 4b3d 39ec 87bc
00000020: f8b8 2d3e dd32 893d 3725 e03d 7d1f d73c
00000030: c3fa 09bd 1391 693d d8ec 80bd 59dc e43d
00000040: 788e b3bd 368a ed3c 1553 843d 7818 bcbc
00000050: dd79 e73d 02ef ebbc 5e2d 00bb 3b63 313e
00000060: e1a5 09be 2749 833d 87fa 9dbd 7a8f a8bd
00000070: 94b4 f1bd 0412 413c 2e31 ebbc e226 80bd
00000080: 88ba 0bbe d5ee 663d 7bb4 b4bc c520 973c
00000090: bab1 d83c ee29 423e 2498 ae3d f7ff fbbd
000000a0: 573b c83d 62ac 4a3d 4aa2 49be ff8a c9bd
000000b0: bafd 80ba 57f1 a43b 0d02 92bd d504 c2bd
000000c0: 07f2 813d 8b27 13be c4e7 f5bd fc03 ccbd
000000d0: 32e3 533e 0939 40bd ae2e 013e 5561 60bd
000000e0: bf39 843d bf33 dbbc 8428 5cbd 815f 053c
000000f0: 0424 203e e370 01be 82e9 46bc 7b61 af3d
00000100: f8a8 1a3e d047 a23d 88ef a33d 0c8a b8bc
00000110: 969f 64bd 3b45 37be 8618 0bbd 186f 08be
00000120: b1aa 0d3e b7ea 3cbc 6eda 933b 3cdc dbbd
00000130: 4b7c 44bd c4c8 a7bb e63f 2fbd 472e 8a3d
00000140: 64f3 d53b 13d7 3a3e e28e 093e 3dc5 ddbc
00000150: 9e9a b03d d410 e0bd b194 fabd bd8e 113e
00000160: 5824 6fbd c931 143e 2e47 eebd 1749 cfbd
00000170: 4de8 833c 7a8a 663c 8970 6d3d d811 bebd
00000180: 3ce5 28bd e858 293d 8f08 95be fd71 d8bc
00000190: 3c85 b83c 4233 553e 4ad6 a83d 17e8 e1bb
000001a0: ddf1 8fbd a9c3 c73b 3153 81be 56e8 80bc
000001b0: 2ae6 bdbd f3fa 043d 897d 693d 6cb4 8a3b
000001c0: 3cea b43c 7995 11be 8614 f0bd a456 82be
000001d0: 0275 213e dd53 0dbe b23f 183d 73ec cbbd
000001e0: 1cf7 f2bc 3298 d6bb be80 89bd f71a d2bd
000001f0: c1f6 0f3e 9074 8cbd 060c d7bd a8fe fbbd
00000200: cd86 ec3d 9b4d cd3d 9a47 ad3d 7702 d5bc
00000210: 75e6 e9bc b3fb 21be 31cf 603d a91e a03b
00000220: 3017 8c3d b99a 4e3d 238f 93bd d6fa e3bd
00000230: fe68 193c e395 06be 5ceb 8abd 07e8 383e
00000240: 8a7a 9bbd fc9f d03d eea4 30bd d927 9f3d
00000250: 7de9 d93d 588c 1b3d 3c7b 86bd 0571 343e
00000260: 8bf0 853d 7a43 9838 a386 8ebd bc9d e3bd
00000270: b818 e5bd 26e2 cf3d 4172 b6bd 6e4b 0c3d
00000280: 6d9f 0cbd bd13 0e3e 166e 0dbe 130c b9b9
00000290: 50e4 893d f2c6 7e3e e938 6b3d 4267 08be
000002a0: 7f12 0cbd 4a27 d1bc e6e4 3ebe ee8c 0cbe
000002b0: b87b 0ebe e6a8 d63c e771 10be 60a0 55bc
000002c0: 9b3d 153a dea1 9f3d 29e3 1cbc 6b5f 7cbe
000002d0: 2173 a1bc 3784 55be 5af2 1ebd 2c2b 7e3d
000002e0: 54f0 9abc a1de fdbc 6f0e 843d e13c 613c
000002f0: b341 403d d49b 023a 28d5 193a b182 a63d
00000300: 9696 88bd 451e e0bd ad77 a63d 0c4c 08be
00000310: 050a 8abc 11a2 17be 97f1 4b3d af24 23be
00000320: 0670 3a3e 92c1 dcbd ea8f 0fbd 123f 173d
00000330: 377c dd3d efff 9fbd bb0f 27be 2cbb cf3d
00000340: 2223 c6bc dbdb 273e ed47 a23b 1434 48bd
00000350: 7790 abbd 46cf 3ebc d6e8 ca3d 3ea0 9c3d
00000360: 9636 dbbd cd97 313e a521 abbd 7080 26be
00000370: 024e f1bd 2ab7 3a3d 4e86 293c 6744 913d
00000380: a066 a73d bd55 99bc 93f4 22bd b479 1e3c
00000390: fd8b fa3d 2932 8d3e 70b5 38bd fde3 873b
000003a0: 8c63 02be fd8e fa3d 67b4 4cbe 7b25 53be
000003b0: 5109 c8bd 6199 973d b1bd 0fbe 411c 42be
000003c0: fcb3 7e3d c288 3dbd 4067 c5bd 0ccd 88be
000003d0: 411c 1d3e 22dc 43be c866 b3bd a73a febc
000003e0: de5a 393c 8b8c dd3d 26f7 babd ff1e 8d3d
000003f0: 0f67 f53d e11a b2bd a190 e8bd 38c5 a43d

actor.2.bias f4 [64]
-0.085631944 -0.07946702 -0.047777366 0.0694159 -0.07902779 -0.029156988 0.10816008 0.03659147
0.02358575 0.118299775 -0.09116314 0.03058097 0.103319526 0.10573447 0.057402577 -0.119178765
0.0047151744 0.0773191 0.03631419 0.06871009 -0.03329959 -0.0068440433 0.07982076 -0.03975942
-0.034714468 0.08746809 -0.083323255 -0.039560575 0.09709554 0.105130255 -0.10193802 0.0697395
-0.030134356 -0.040650066 0.033550326 0.06260454 0.014799779 0.013506867 -0.05518608 -0.036663298
0.030271888 0.07813267 -0.082764074 0.026307615 0.010412395 0.07723731 -0.058696035 -0.03853925
0.08063064 0.07587686 -0.12892073 0.05782252 0.00032033864 -0.022967054 -0.122917145 0.049745955
0.050054733 0.015057303 -0.038429447 -0.07772915 -0.009463522 0.054266762 -0.03959845 -0.09071463
00000000: cd5f afbd 9bbf a2bd 33b2 43bd ec29 8e3d
00000010: 52d9 a1bd a3da eebc 0883 dd3d f0e0 153d
00000020: e736 c13c 2747 f23d beb3 babd f184 fa3c
00000030: 3099 d33d 508b d83d f71e 6b3d ff13 f4bd
00000040: c081 9a3b 7a59 9e3d 30be 143d e0b7 8c3d
00000050: 2765 08bd ff43 e0bb 1179 a33d c6da 22bd
00000060: c230 0ebd 7822 b33d 62a5 aabd 450a 22bd
00000070: 07da c63d 884e d73d e1c4 d0bd 95d3 8e3d
00000080: 53dc f6bc af80 26bd 116c 093d cf36 803d
00000090: c67a 723c e84b 5d3c cd0a 62bd 412c 16bd
000000a0: c0fc f73c 0504 a03d 3680 a9bd 1183 d73c
000000b0: c098 2a3c 982e 9e3d 416b 70bd 55db 1dbd
000000c0: ad21 a53d 5465 9b3d cc03 04be 4fd7 6c3d
000000d0: 20f3 a739 6725 bcbc fcbb fbbd 6ac2 4b3d
000000e0: 3106 4d3d e8b2 763c 3268 1dbd 7630 9fbd
000000f0: e30c 1bbc d346 5e3d fc31 22bd 98c8 b9bd

actor.4.weight f4 [2, 64]
0.17596854 0.12720315 0.06499902 0.23393472 -0.14202176 0.05084176 0.18066932 -0.07658559
0.057565503 -0.13388616 -0.122042045 -0.08317294 0.15974762 -0.13947074 0.26044506 -0.22004707
0.1947719 -0.13402227 -0.15613797 -0.01420775 -0.07141147 0.088478036 0.2243269 -0.16936457
0.049167436 -0.20699984 -0.09996329 0.00344243 -0.17265153 -0.19373485 0.12008561 0.19784069
0.1814365 0.034517862 -0.029502608 0.22076358 -0.20740156 -0.20448254 -0.038653504 0.15095218
0.14965354 -0.007449041 -0.08384533 -0.01536367 -0.228013 0.13360259 -0.14345352 -0.20292398
-0.116229065 0.17828439 0.07418274 -0.13088192 -0.17009325 -0.16095258 0.062428623 -0.22405373
0.009888495 0.2220798 -0.15334298 -0.051229976 -0.09702341 -0.17069402 -0.13474011 0.021604056
-0.12471724 -0.23577672 -0.101473585 -0.032458488 0.13866813 0.14956766 -0.12868439 0.06963283
-0.08330989 0.1825898 0.12449287 0.15350707 -0.07219071 0.1832157 -0.18489972 0.0013449284
-0.054104976 0.030471517 0.029299526 0.056381132 0.060833406 -0.12210035 -0.09017555 0.10363027
-0.14214313 0.046805985 0.037784178 -0.17417537 0.1559561 -0.031363517 -0.17056388 -0.14395627
-0.09015692 -0.11954507 0.10738245 -0.14474568 -0.0046421965 0.087264635 0.09086153 -0.03801617
-0.08166534 -0.04863804 -0.027573131 0.13853768 0.12881947 -0.15658836 0.11050055 0.14091375
0.07706425 -0.19346394 -0.019950802 0.093890555 0.051290363 -0.04136493 -0.26624167 0.11960489
0.107379206 -0.17759845 0.16253583 -0.16481933 0.13608283 0.1757035 0.038758595 0.07517499
00000000: 1931 343e 8b41 023e 351e 853d 958c 6f3e
00000010: 276e 11be 733f 503d 6101 393e e8d8 9cbd
00000020: cec9 6b3d 7419 09be 2ef1 f9bd 9356 aabd
00000030: e194 233e 6bd1 0ebe 0e59 853e 0554 61be
00000040: 4972 473e 223d 09be a2e2 1fbe 9fc7 68bc
00000050: 2d40 92bd f933 b53d f3b5 653e e86d 2dbe
00000060: cb63 493d c4f7 53be 8eb9 ccbd 649a 613b
00000070: 90cb 30be 6e62 46be 72ef f53d c096 4a3e
00000080: 7dca 393e 9a62 0d3d 74af f1bc d90f 623e
00000090: 1361 54be df63 51be 2353 1ebd 3593 1a3e
000000a0: c73e 193e 1617 f4bb 1ab7 abbd e7b7 7bbc
000000b0: 3d7c 69be 1ecf 083e 7be5 12be 4ecb 4fbe
000000c0: 8109 eebd 2f90 363e 1fed 973d e905 06be
000000d0: ed2c 2ebe c1d0 24be 28b5 7f3d 576e 65be
000000e0: 5b03 223c e368 633e f105 1dbe 86d6 51bd
000000f0: 36b4 c6bd 6aca 2ebe 50f9 09be fdfa b03c
00000100: c16b ffbd 746f 71be 62d1 cfbd 31f3 04bd
00000110: 05ff 0d3e 4428 193e d7c5 03be a89b 8e3d
00000120: 609e aabd d2f8 3a3e 1ef6 fe3d f530 1d3e
00000130: b9d8 93bd e59c 3b3e 5a56 3dbe 4f48 b03a
00000140: 2e9d 5dbd 679f f93c 8f05 f03c e7ef 663d
00000150: 732c 793d c00f fabd f5ad b8bd 1b3c d43d
00000160: f88d 11be a2b7 3f3d 95c3 1a3d 075b 32be
00000170: f5b2 1f3e 0877 00bd 4ca8 2ebe 4669 13be
00000180: 31a4 b8bd 0cd4 f4bd 54eb db3d 3638 14be
00000190: 911d 98bb cdb7 b23d 9c15 ba3d d8b6 1bbd
000001a0: 2840 a7bd ae38 47bd 0ce1 e1bc d2dc 0d3e
000001b0: 40e9 033e b358 20be 1d4e e23d b24b 103e
000001c0: ddd3 9d3d 691b 46be dd6f a3bc b149 c03d
000001d0: d815 523d 466e 29bd d450 88be 69f3 f43d
000001e0: a1e9 db3d 5edc 35be cb6f 263e 66c6 28be
000001f0: 4c59 0b3e 9eeb 333e 55c1 1e3d 58f5 993d

actor.4.bias f4 [2]
-0.014635891 0.062132273
00000000: 60cb 6fbc 697e 7e3d

critic.0.weight f4 [64, 4]
0.37704659 0.24671008 0.8271503 0.05918207 -0.5385186 -0.15490608 -0.2742791 -0.30999118
0.87075895 -0.12167774 0.57098407 -0.38737923 -0.41039184 0.4796169 -0.79919326 0.24088623
0.04796459 -0.24363403 -0.09483524 0.5476699 -0.37601718 0.1312761 -0.20300573 -0.45294297
-0.104616456 0.31531703 -0.19406328 0.20790073 -0.010820417 0.0086126905 0.50204307 -0.09442639
-0.76184976 -0.3155736 -0.2645883 -0.36082736 -0.44719702 -0.4759818 0.2184153 0.45469433
0.0664716 0.048678286 -0.15944543 0.08008322 0.12496491 -0.1498753 0.020096907 0.48722535
-0.16332841 -0.23652536 -0.12593712 -0.48799753 0.8861957 0.5184685 1.1675693 0.05692388
0.40607023 0.40534097 1.0351145 0.2106701 -0.89860845 -0.1428346 0.18388052 -0.124844514
-0.0054301973 -0.39700362 -0.78199226 -0.4438847 -0.11038158 0.1174659 -0.5860607 0.23074478
0.4049202 -0.41658127 0.04544708 -0.60609 0.048215937 -0.1932143 -0.18273473 -0.517123
0.9253281 0.091811985 0.71162987 0.33876622 0.77564764 0.1031417 0.18103665 -0.39166972
0.6277775 0.05325518 0.45119163 -0.083210744 0.7693778 -0.36345875 0.58478683 -0.53526473
-0.50526804 -0.2222126 -0.33500475 -0.3702275 -1.005 0.071633354 -1.3393184 0.11655217
-0.6174311 -0.38358405 -0.5220968 -0.51596564 0.19717324 -0.35416302 0.6048965 -0.032213725
1.0055101 0.19068442 0.6553061 -0.06745112 0.9617461 -0.018351458 0.78399956 -0.008058595
-0.443598 -0.33365956 -0.29025444 -0.23875414 0.28192434 -0.19384329 1.0326506 0.14705755
0.20093226 -0.17273504 0.18635938 0.502156 0.02623664 0.040651932 0.74944943 0.0041820235
-0.6817095 0.055261806 -1.0448483 -0.44537127 0.7892361 -0.165754 0.98479956 -0.09961848
-0.5494059 -0.11066427 -0.31613404 0.095169805 0.7458414 0.29289415 1.0238558 -0.10350737
-0.16937424 0.095425785 -0.3626065 0.021256901 -0.11745549 -0.065626524 -1.1480522 -0.22561124
0.7030869 0.51974213 0.9436576 0.3214088 -0.34226698 -0.29489514 0.81464994 0.48989117
-0.6650214 -0.37480137 0.095387645 0.14231554 -0.6542382 -0.06400044 -0.41644287 -0.45830694
0.024411857 0.06395626 0.63136727 0.008056189 0.94366187 0.27726656 0.70740145 0.14325906
-0.11458023 0.008678892 1.1183306 0.29880625 -0.9740619 -0.16027847 -1.0492221 -0.2552034
0.72045344 0.33772844 1.123476 0.474551 -0.56387174 -0.26454628 -0.5650349 0.23669842
-0.8043108 -0.10159353 -0.66269034 -0.06674204 -0.14437139 -0.061244566 0.1645838 0.48269516
-0.38842362 0.34436432 -0.4647162 -0.23561075 -0.4144875 -0.40582716 -0.44174594 -0.2842255
0.73578537 0.3198674 0.42646325 0.3074411 0.14248112 -0.3037401 0.834617 0.40211818
-0.47968337 -0.47501802 -0.38476196 0.28246722 -0.13755332 -0.34922788 -0.038798995 0.49663576
0.8022728 -0.112426385 1.3369882 0.24640588 -0.25293693 -0.38544318 0.103804 -0.06582432
0.8448359 0.18927608 0.9707035 -0.086340435 0.3248712 -0.18676955 0.41184986 0.27203125
-0.29636738 0.40860832 -0.40449628 -0.03923441 -0.5427027 0.057609793 0.09898347 0.35655305
00000000: 400c c13e 91a1 7c3e 1fc0 533f e668 723d
00000010: 5bdc 09bf b39f 1ebe 4f6e 8cbe 2ab7 9ebe
00000020: 0fea 5e3f 2e32 f9bd 032c 123f 9256 c6be
00000030: e11e d2be 5990 f53e ee97 4cbf e1aa 763e
00000040: 8576 443d 337b 79be fa38 c2bd 1834 0c3f
00000050: 5385 c0be 3e6d 063e bce0 4fbe 24e8 e7be
00000060: 2741 d6bd 3c71 a13e 86b8 46be eee3 543e
00000070: 1e48 31bc 3e1c 0d3c e585 003f a062 c1bd
00000080: 9608 43bf dd92 a1be 1e78 87be 5dbe b8be
00000090: 02f7 e4be e3b3 f3be 43a8 5f3e b2cd e83e
000000a0: 4322 883d e262 473d aa45 23be ac02 a43d
000000b0: 9aed ff3d e978 19be 45a2 a43c 9a75 f93e
000000c0: 903f 27be b433 72be a9f5 00be d0da f9be
000000d0: b9dd 623f 5aba 043f e972 953f 0429 693d
000000e0: 70e8 cf3e da88 cf3e a27e 843f e7b9 573e
000000f0: 340b 66bf 3c43 12be 2d4b 3c3e 7bae ffbd
00000100: ccef b1bb 0f44 cbbe a530 48bf db44 e3be
00000110: bd0f e2bd f691 f03d 1308 16bf 5c48 6c3e
00000120: b351 cf3e 244a d5be b826 3a3d b728 1bbf
00000130: 137e 453d f8d9 45be d01e 3bbe 2c62 04bf
00000140: 4de2 6c3f ec07 bc3d 602d 363f c472 ad3e
00000150: d890 463f f53b d33d ac61 393e ef88 c8be
00000160: 07b6 203f 1b22 5a3d 9702 e73e 656a aabd
00000170: f2f5 443f 4417 babe 97b4 153f 1c07 09bf
00000180: 3f59 01bf b38b 63be be85 abbe 758e bdbe
00000190: d7a3 80bf 82b4 923d c96e abbf e7b2 ee3d
000001a0: f70f 1ebf 2165 c4be 23a8 05bf 5316 04bf
000001b0: c8e7 493e db54 b5be 7fda 1a3f 8af2 03bd
000001c0: 8eb4 803f c742 433e 24c2 273f d023 8abd
000001d0: fe34 763f cc55 96bc 32b4 483f 3208 04bc
000001e0: 471f e3be 6dd5 aabe 3b9c 94be f77b 74be
000001f0: 6358 903e db7e 46be e52d 843f 4196 163e
00000200: 30c1 4d3e 74e1 30be fed4 3e3e 4c8d 003f
00000210: 39ee d63c a482 263d ebdb 3f3f 5b09 893b
00000220: 8484 2ebf 345a 623d 97bd 85bf b407 e4be
00000230: 610b 4a3f 6bbb 29be d31b 7c3f c604 ccbd
00000240: dda5 0cbf f3a3 e2bd 52dc a1be 63e8 c23d
00000250: 76ef 3e3f 39f6 953e b50d 833f acfb d3bd
00000260: 7170 2dbe 986e c33d 8fa7 b9be f422 ae3c
00000270: 818c f0bd 3367 86bd 60f3 92bf a206 67be
00000280: 81fd 333f d20d 053f 8b93 713f b28f a43e
00000290: 9e3d afbe 7ffc 96be e68c 503f 04d3 fa3e
000002a0: d83e 2abf f7e5 bfbe 995a c33d 2abb 113e
000002b0: 287c 27bf aa12 83bd 0038 d5be 35a7 eabe
000002c0: 60fb c73c 80fb 823d 49a1 213f 1bfe 033c
000002d0: d393 713f e2f5 8d3e 4318 353f 81b2 123e
000002e0: 0aa9 eabd e931 0e3c 7525 8f3f 22fd 983e
000002f0: 1f5c 79bf 0a20 24be e94c 86bf 05aa 82be
00000300: a36f 383f beea ac3e 10ce 8f3f 59f8 f23e
00000310: e659 10bf 9c72 87be 21a6 10bf 1261 723e
00000320: 50e7 4dbf 4510 d0bd 13a6 29bf 0db0 88bd
00000330: 18d6 13be 95db 7abd a888 283e d223 f73e
00000340: 76df c6be 8550 b03e 48ef edbe f243 71be
00000350: b537 d4be 94c8 cfbe 862c e2be 0186 91be
00000360: 6e5c 3c3f a9c5 a33e 6459 da3e eb68 9d3e
00000370: 92e6 113e d383 9bbe 76a9 553f 6fe2 cd3e
00000380: 0f99 f5be 9035 f3be 85ff c4be 8b9f 903e
00000390: c7da 0cbe ffcd b2be b2eb 1ebd 0b47 fe3e
000003a0: c061 4d3f ce3f e6bd 6e22 ab3f d351 7c3e
000003b0: f380 81be cf58 c5be 3197 d43d e7ce 86bd
000003c0: 2a47 583f 97d1 413e 0680 783f 41d3 b0bd
000003d0: 8555 a63e 8440 3fbe fcdd d23e ae47 8b3e
000003e0: 77bd 97be 1c35 d13e 231a cfbe 43b4 20bd
000003f0: 90ee 0abf 3ff8 6b3d d8b7 ca3d 1f8e b63e

critic.0.bias f4 [64]
-0.38303807 -0.18154383 0.15814094 0.20830859 -0.32128108 -0.43446544 0.34754446 -0.43463266
0.2911107 0.28710732 -0.40273473 0.39477065 -0.24505389 -0.3774334 -0.33347958 0.034053862
0.19723648 -0.33452225 0.14677012 -0.42401296 -0.25155357 -0.31644928 -0.2644667 -0.047229182
-0.3268103 -0.1351287 -0.09388288 0.08283549 -0.19019747 -0.3020606 0.17969355 -0.29016015
-0.4519469 -0.21698245 0.36305887 -0.13354218 -0.48852187 -0.06855785 -0.47152296 0.22520512
-0.29217964 -0.29258546 0.30572948 0.2585306 -0.5088811 0.35410038 0.00240744 -0.060324028
0.16104242 -0.32021445 -0.19619066 0.2654683 -0.3457702 0.08625101 -0.005947444 -0.24315423
-0.3520521 -0.13278951 -0.16552328 -0.28215203 0.3544111 -0.4237424 0.51072747 -0.27846295
00000000: 911d c4be a0e6 39be b3ef 213e d94e 553e
00000010: f47e a4be 4172 debe 59f1 b13e 2c88 debe
00000020: 760c 953e bbff 923e 3f33 cebe 611f ca3e
00000030: 68ef 7abe f33e c1be d6bd aabe 107c 0b3d
00000040: 5cf8 493e 8046 abbe e84a 163e 3a18 d9be
00000050: a1cb 80be a405 a2be 2e68 87be 6373 41bd
00000060: ae53 a7be 2e5f 0abe ab45 c0bd a7a5 a93d
00000070: 20c3 42be b0a7 9abe 9601 383e df8f 94be
00000080: 9665 e7be a630 5ebe dae2 b93e 48bf 08be
00000090: 8a1f fabe 0f68 8cbd 756b f1be 2c9c 663e
000000a0: 9298 95be c3cd 95be 9388 9c3e 1f5e 843e
000000b0: 0846 02bf a54c b53e 24c6 1d3b 5416 77bd
000000c0: 4ee8 243e 26f3 a3be 34e6 48be 76eb 873e
000000d0: cb08 b1be 5fa4 b03d c7e2 c2bb 6cfd 78be
000000e0: 2c40 b4be f9f9 07be ef7e 29be 3b76 90be
000000f0: 5f75 b53e c4f4 d8be 09bf 023f b292 8ebe

critic.2.weight f4 [64, 64]
-0.18836224 0.15747675 -0.14104204 0.15135024 0.11281193 0.079090595 -0.12199237 -0.11175804
0.05868332 0.023010908 -0.06824139 -0.03810326 -0.03575598 -0.2520804 -0.26725152 0.24789983
0.004919585 0.117764026 -0.10747793 -0.04000892 -0.3060434 -0.22285645 -0.23821089 -0.230532
0.014760779 0.55561507 0.12395367 -0.20312056 -0.17127354 -0.33357385 0.13769753 -0.08416322
-0.0010554986 -0.18262492 0.26188532 -0.47806418 -0.03501172 -0.17201763 0.18735592 0.22857146
-0.38123786 -0.1368535 0.14304322 0.19773962 -0.1682362 -0.2647301 0.08720547 0.52546996
-0.40651175 0.020941334 0.20017387 0.047722213 0.17375974 0.16868514 -0.3623985 -0.12885903
0.17306285 0.017699655 -0.35990646 -0.07942358 -0.14047442 -0.13558817 0.15382083 0.11190755
0.013458725 -0.08395827 0.025440402 0.06616494 -0.036878932 0.09785716 0.10133793 -0.057227146
0.10095807 -0.018303653 -0.17387502 0.09949468 -0.014221293 0.08524665 -0.047629286 -0.12431991
-0.04083255 -0.1999445 -0.05100647 0.0104777925 -0.1499797 -0.032017425 -0.17922981 -0.10348542
-0.12643655 -0.08259125 -0.1307276 -0.08723102 0.11610712 -0.1762672 -0.020771269 -0.14762035
-0.052363534 -0.15251635 0.049836744 -0.030519571 -0.04278294 0.04424039 -0.20168757 0.048135463
-0.11500442 0.07008214 0.004178958 0.11292725 -0.15434489 -0.02514645 -0.04609664 -0.044697575
0.02562336 0.018666359 -0.11629796 -0.061966464 0.10499832 0.06110717 -0.12120611 -0.07578168
0.06923121 0.053281285 -0.054036133 0.041954592 -0.0078745335 -0.041045688 0.12344409 -0.039919525
0.07578581 0.10238594 -0.20190531 0.10540839 -0.088810354 0.0754829 0.020663323 -0.0497235
-0.13676909 -0.0842152 -0.011221123 0.15049534 -0.20442043 0.11161191 0.17565319 0.013127545
-0.20403442 0.2086398 -0.30294994 0.035103146 -0.021146065 -0.08555766 0.10539143 -0.30863383
-0.08845589 0.12671392 -0.24636674 -0.23361911 -0.034250244 -0.09357803 -0.16929772 -0.047594525
-0.0037424949 -0.03155093 0.095893174 -0.104093425 -0.003906659 -0.0034220107 0.11224931 -0.10405095
0.21539767 0.13976294 -0.027046902 0.06899339 0.11149225 -0.13839574 0.1516367 -0.05029819
-0.050875947 0.10394309 0.13089924 -0.05803536 -0.016986964 -0.1861714 0.2087158 -0.08940603
0.04115629 0.120008074 -0.20682888 -0.018713268 -0.06319416 -0.008958543 -0.05021524 0.01624022
-0.054868564 0.21648665 -0.06786741 0.08060048 0.0989477 0.09840891 -0.10033969 0.0063437317
-0.09984147 -0.14505732 -0.022858456 -0.086877346 0.08735464 -0.051614966 -0.06507473 0.13493513
-0.06495524 -0.05218182 -0.09045261 0.06872081 -0.07506394 0.023451556 0.08374135 0.014532387
0.08830492 0.35397777 0.11888959 0.0007192187 -0.08628157 0.0048730937 0.06748375 0.0030832086
0.04916098 -0.011349712 0.014722972 -0.1453649 -0.0027456533 0.06246515 0.014045048 -0.022712803
0.108415775 0.021351375 -0.15858947 0.06186004 -0.09424792 -0.26524708 -0.06063603 0.16204414
-0.28876278 0.061920825 0.15239431 -0.10797762 0.0730125 0.15455228 -0.16130155 0.034934364
0.13413927 0.12156502 -0.09853917 -0.046060637 -0.1841956 0.14672211 -0.13387346 -0.011345127
00000000: 08e2 40be 9641 213e 536d 10be 8ffb 1a3e
00000010: f109 e73d 40fa a13d 23d7 f9bd 66e1 e4bd
00000020: ec5d 703d 5f81 bc3c 24c2 8bbd 2a12 1cbd
00000030: dd74 12bd af10 81be 31d5 88be 74d9 7d3e
00000040: 7834 a13b 442e f13d 641d dcbd 65e0 23bd
00000050: b8b1 9cbe 7b34 64be 8eed 73be 9510 6cbe
00000060: 32d7 713c ca3c 0e3f 6cdb fd3d d6fe 4fbe
00000070: 5562 2fbe 31ca aabe 9500 0d3e c45d acbd
00000080: a858 8aba 0702 3bbe d515 863e d4c4 f4be
00000090: 7368 0fbd 6425 30be 3bda 3f3e a30e 6a3e
000000a0: 9c31 c3be 5323 0cbe ec79 123e 417c 4a3e
000000b0: 1c46 2cbe b48a 87be c898 b23d 3385 063f
000000c0: 4f22 d0be 298d ab3c 61fa 4c3e 5e78 433d
000000d0: 13ee 313e ccbb 2c3e 4c8c b9be 9ff3 03be
000000e0: 6337 313e defe 903c a945 b8be d4a8 a2bd
000000f0: 87d8 0fbe a0d7 0abe 3583 1d3e c92f e53d
00000100: fc81 5c3c 50f2 abbd 6468 d03c 7c81 873d
00000110: 5d0e 17bd 5669 c83d 438a cf3d 0367 6abd
00000120: 1bc3 ce3d 8bf1 95bc 4b0c 32be dec3 cb3d
00000130: 6d00 69bc cc95 ae3d ed16 43bd 709b febd
00000140: 0840 27bd 40be 4cbe 29ec 50bd 0cab 2b3c
00000150: 4794 19be b424 03bd 0588 37be 2af0 d3bd
00000160: 9578 01be 9a25 a9bd 75dd 05be 2da6 b2bd
00000170: 92c9 ed3d 647f 34be 8228 aabc ca29 17be
00000180: 257b 56bd 3f2d 1cbe 9d21 4c3d 2e04 fabc
00000190: 2a3d 2fbd 6935 353d 3087 4ebe b129 453d
000001a0: 7087 ebbd 3a87 8f3d a4ef 883b 6746 e73d
000001b0: 960c 1ebe eeff cdbc d5cf 3cbd ce14 37bd
000001c0: 15e8 d13c 31ea 983c a02d eebd 8cd0 7dbd
000001d0: 5c09 d73d 834b 7a3d e93a f8bd 6d33 9bbd
000001e0: 18c9 8d3d 7a3d 5a3d fe54 5dbd 94d8 2b3d
000001f0: 3004 01bc 861f 28bd 41d0 fc3d a882 23bd
00000200: 9735 9b3d b8af d13d 44c0 4ebe 5be0 d73d
00000210: 34e2 b5bd c796 9a3d 2146 a93c deaa 4bbd
00000220: 320d 0cbe 0579 acbd cdd8 37bc 731b 1a3e
00000230: 9753 51be c994 e43d 6ede 333e ea14 573c
00000240: 66ee 50be aca5 553e 411c 9bbe 51c8 0f3d
00000250: 833a adbc db38 afbd 76d7 d73d 4105 9ebe
00000260: 5d28 b5bd 4bc1 013e 9047 7cbe d939 6fbe
00000270: fc49 0cbd d7a5 bfbd 625c 2dbe 7af2 42bd
00000280: a544 75bb 8c3b 01bd a463 c43d ef2e d5bd
00000290: 6e03 80bb d043 60bb f7e2 e53d aa18 d5bd
000002a0: 3591 5c3e 041e 0f3e 7791 ddbc 684c 8d3d
000002b0: 0c56 e43d 9db7 0dbe a746 1b3e 7a05 4ebd
000002c0: 4c63 50bd 1de0 d43d 730a 063e 7cb6 6dbd
000002d0: 3f28 8bbc b7a3 3ebe 98b9 553e 821a b7bd
000002e0: 7f93 283d cbc6 f53d f3ca 53be 914c 99bc
000002f0: f16b 81bd dac6 12bc 7fae 4dbd 360a 853c
00000300: dcbd 60bd adae 5d3e 12fe 8abd dd11 a53d
00000310: 17a5 ca3d 9c8a c93d e57e cdbd 14df cf3b
00000320: af79 ccbd e889 14be a841 bbbc c0ec b1bd
00000330: fde6 b23d 376a 53bd e645 85bd 6f2c 0a3e
00000340: 4107 85bd 9bbc 55bd 383f b9bd 7fbd 8c3d
00000350: 1fbb 99bd 7a1d c03c 9680 ab3d 4019 6e3c
00000360: 36d9 b43d 933c b53e 637c f33d f389 3c3a
00000370: 64b4 b0bd 79ae 9f3b ec34 8a3d a80f 4a3b
00000380: 065d 493d 24f4 39bc 9f38 713c 89da 14be
00000390: 6bf0 33bb 75db 7f3d 331d 663c 3310 babc
000003a0: 1709 de3d 14e9 ae3c 4765 22be f460 7d3d
000003b0: 0e05 c1bd 77ce 87be 7c5d 78bd e6ee 253e
000003c0: b7d8 93be b1a0 7d3d 410d 1c3e 5f23 ddbd
000003d0: 9487 953d f442 1e3e 3c2c 25be 5617 0f3d
000003e0: ce5b 093e 15f7 f83d e8ce c9bd 14aa 3cbd
000003f0: c59d 3cbe 523e 163e 2016 09be e9e0 39bc

critic.2.bias f4 [64]
0.013292359 0.22708358 0.07267687 0.02615337 -0.08644429 -0.15565959 -0.21602891 -0.019371027
0.076332405 -0.029094657 -0.21194491 0.16934733 -0.055382434 -0.030315673 0.036167458 0.07064668
0.06429895 0.2650806 0.2259569 -0.24198878 -0.08438527 -0.1696841 0.19652666 -0.037846155
-0.15387249 -0.2485514 -0.06532947 -0.2615868 0.088706695 0.044245463 -0.06561698 0.14587334
0.0054509323 0.102627374 -0.070745595 -0.18501757 -0.11670429 0.23661391 0.0058605303 -0.14671934
-0.11087027 -0.0037471764 -0.047925353 0.07262863 0.03587306 -0.021438556 0.22422487 -0.083332606
-0.058305237 0.20974307 -0.19673683 0.070401005 0.08951887 -0.2062043 -0.13480239 0.2548883
-0.10442109 -0.04499074 -0.044042896 0.1455458 0.2697793 -0.21168603 -0.09776898 0.007891086
00000000: 32c8 593c 9988 683e 9cd7 943d 983f d63c
00000010: b409 b1bd 3a65 1fbe af36 5dbe fdaf 9ebc
00000020: 2a54 9c3d eb57 eebc 1608 59be 6369 2d3e
00000030: b1d8 62bd 9358 f8bc 5424 143d 35af 903d
00000040: 2baf 833d a5b8 873e 3f61 673e e8cb 77be
00000050: 2fd2 acbd abc1 2dbe 493e 493e 9204 1bbd
00000060: c090 1dbe 4284 7ebe 75cb 85bd b4ee 85be
00000070: dbab b53d bb3a 353d 3262 86bd d25f 153e
00000080: bc9d b23b 4d2e d23d 11e3 90bd 3f75 3dbe
00000090: a902 efbd eb4a 723e b109 c03b 983d 16be
000000a0: f40f e3bd 3093 75bb 604d 44bd 52be 943d
000000b0: a1ef 123d e99f afbc 349b 653e 49aa aabd
000000c0: 79d1 6ebd e3c6 563e 6175 49be 672e 903d
000000d0: ab55 b73d 3827 53be a309 0abe b880 823e
000000e0: b9da d5bd 3648 38bd 5366 34bd f509 153e
000000f0: 8320 8a3e 39c4 58be 1a3b c8bd 9d49 013c

critic.4.weight f4 [1, 64]
0.2653981 -0.10901068 -0.042040396 -0.084667966 0.06510122 0.033624765 0.14625247 0.28906295
-0.0003593339 0.17017627 0.03491447 0.014016107 0.05780267 0.020863555 0.033911426 -0.05244446
0.02923543 -0.05811458 -0.12129723 0.0972444 0.0052593467 0.044191964 0.24791256 0.022358049
0.09948876 0.15936217 0.29766768 0.13786927 -0.03815293 -0.006689233 0.025707306 -0.12124418
-0.05957756 -0.31179547 -0.0019464944 -0.29784763 -0.32013744 -0.12854245 0.17946047 -0.12804304
0.010635102 0.19034666 0.23455065 0.007888025 -0.0022547687 0.014269048 -0.108320735 -0.29499045
0.039850585 -0.062288318 0.030256433 0.14825818 -0.17320608 0.059921082 0.029339697 -0.16319504
0.08428395 0.007716027 -0.0128736645 -0.09268546 -0.1879657 0.08331634 -0.067721896 -0.0084427195
00000000: 42e2 873e fe40 dfbd 8d32 2cbd 6666 adbd
00000010: ca53 853d 1fba 093d 35c3 153e 0f00 943e
00000020: fb64 bcb9 b042 2e3e 7a02 0f3d d0a3 653c
00000030: 7ec2 6c3d 0cea aa3c b5e6 0a3d 01d0 56bd
00000040: 247f ef3c 8e09 6ebd af6a f8bd 1228 c73d
00000050: 9956 ac3b a202 353d cadc 7d3e 3a28 b73c
00000060: c3c0 cb3d d62f 233e e667 983e 9a2d 0d3e
00000070: 3f46 1cbd 5a31 dbbb 2198 d23c de4e f8bd
00000080: 9907 74bd a8a3 9fbe 8421 ffba 7c7f 98be
00000090: 0ee9 a3be a2a0 03be 7cc4 373e b71d 03be
000000a0: da3e 2e3c 3cea 423e 0c2e 703e c63c 013c
000000b0: bec4 13bb bac8 693c 43d7 ddbd fd08 97be
000000c0: 5e3a 233d 0922 7fbd 57dc f73c fed0 173e
000000d0: ef5c 31be cf6f 753d ce59 f03c 9a1c 27be
000000e0: 109d ac3d bad6 fc3b 10ec 52bc e0d1 bdbd
000000f0: 157a 40be c2a1 aa3d c7b1 8abd 5553 0abc
